network/results_sorted_1d_2d/best_model.pt (torch, 60258 bytes, 11 tensors)

linear_relu_stack.0.weight f4 [64, 45]
00000000: 0dcc 32bd 1be0 d53d 8d2a e73d 984e 11be
00000010: fc46 34be 33a8 4bbe d42d 41be 5fa7 8cbe
00000020: 3fcc 5abe 1217 163d 9776 c3bc f6d7 1fbe
00000030: 8081 8ebd 5184 7f3d 46c6 3dbd 1f25 4abd
00000040: c127 73be 7ece a6bd d7b3 b2bd ca28 a0bd
00000050: 27c7 90bd 8028 e1bd 4817 32bd 9a62 39bc
00000060: 226d 683b 7918 b2bd e12f a2bd 3354 b93d
00000070: 0c4f 30be fda2 e2bd 7478 6d3d 2eb3 1e3c
00000080: 70cf 473e 510d 0bbd 33da 4c3d 75ae 9d3d
00000090: ce06 f6bd fc64 3e3e 5f5b 14be ebab c23d
000000a0: e1b4 50bb 9b3c 14bd fd77 733d cdf8 f23b
000000b0: 6228 7cbd 5f3f cf3d 922c f33d 98b2 413d
000000c0: f845 383e cc2e fa3d a7cc 673e 5180 c63d
000000d0: 688e 0cbc e707 5f3e b8a5 39bd 0826 ac3d
000000e0: 46a2 073d 0579 c23c 82b0 d3bc 3056 16bd
000000f0: ff77 58bc 8fdd 203e bdde 7eb9 e6ea 89bd
00000100: d63f 413e 358d 1c3e 9c3c c03d 5adf 013e
00000110: 55e9 f53d 0870 d73d 5a7f b3bd 3335 82bc
00000120: 1b4c 233e bdec 6f3e 1541 f03d 6cce 813a
00000130: ede1 3c3e dc26 253e 441f 7f3d 732b 3f3e
00000140: 4fc7 933d 90fa 053e 7f54 fe3c 7db2 3a3e
00000150: cb1d 05bd 37b7 bd3d a25c 273c 5211 623d
00000160: b2ce 563e d202 65bd d291 db3d 14e8 863d
00000170: 2a81 25bd 0a3c e1bd c9db 583d f653 07be
00000180: 36d5 8e3d e1c0 13be b474 e2bd 84ff ae3c
00000190: ed8c 1a3e 7bf6 00be 1364 ba3c 0b5e 86bc
000001a0: 2db1 b3bd 49a4 66bd 46e7 ce3d 30ac dbbd
000001b0: c230 92bd 111d 613c 2e0b 04be fa71 263c
000001c0: b389 8a3c 5040 f13c 4da5 553d 8d3a 293e
000001d0: 2f0f 483d 3a6f 123e 8e2c 71bd dc71 a23c
000001e0: 1ecf 35bd 9fc4 0ebe fcd3 09bd 5467 2fbd
000001f0: d0ff c1bd 5be8 0cbd abc2 10be 7c58 d63c
00000200: ed4d 253d 875d ddbc 4eea df3d bf10 26be
00000210: d085 acbd 5289 d73d 6399 073d b377 65bd
00000220: 6c54 0abd 8e27 f33c 92c8 87bd a99f 0a3e
00000230: b02d 97ba 5b93 363e 66b5 293e bf37 2b3e
00000240: ddcb a2bd 9acb 9f3d e7aa 0cbd cc7f c3bc
00000250: 593b b73d 95b8 eabd 60f2 86bc 8da6 b63d
00000260: 1296 d9bc 2369 453e fa22 1c3e 9189 4fbd
00000270: 9cf6 723d 76ae cfbd 11d7 e73d 7eee 7a3b
00000280: ba45 9b3d b3a2 d4bc c195 1d3e 12fc 8f3d
00000290: 9c8e a1bd f321 07be 0391 f2bc dbc1 d63c
000002a0: 5835 3dbd 6a87 193c c204 01be 0df6 f93b
000002b0: 38d9 8f3d 1a5e abbd 8bdd 9abd ee4c 6f3d
000002c0: 9e35 f73d 5c4c cc3a 9b75 1fbd af64 ba3d
000002d0: 18dd fa3c f464 bc3d ce65 94bd 955e 7dbd
000002e0: fcc3 853d 3cad 993d 54e6 1f3d 9f39 253d
000002f0: bdbe 173a 5ccd c2bd f731 99bb 0985 a538
00000300: 346d 553d a269 5dbc fe53 273e 2ed9 a7bc
00000310: 3e8a d33d 8cf8 52be 0cfa ecbd 5b01 dbbd
00000320: c727 3fbd 5d4b 38be 7cf2 81bd 6980 f63d
00000330: 2467 7a3d f8c8 73bc 2944 1cbd 8be6 2f3d
00000340: 5c8c 0ebe efb9 0f3c 55bd 69be 0cee 42be
00000350: 5283 4ebe 56ff 653c 3a51 68bc 82e9 efbd
00000360: 8b50 8fbd 8165 0f3e cdec edbd 01e0 4abe
00000370: 013d ffbd 49d4 46bd 25e6 063e bd44 143d
00000380: 344d ffbc 2d9c 42bd ab97 cdbd 01dc efbd
00000390: 7ddc bc3d 24be e0bd c42a f6bd f3ed 03be
000003a0: 9960 283d 55e1 3bbe 2513 0a3e 52f3 fd3c
000003b0: 127e 0ebd 0a06 b93d c515 c93d 79b6 e0bd
000003c0: 9904 6b3c 05dc 39be 2454 a1bc e38c 133e
000003d0: 4097 1f3e 8b15 bfbd 0877 a8bd a07d 1ebe
000003e0: fed2 c6bd 4409 9b3c 3e97 e13d 2754 fe3d
000003f0: 4f6c e5bd d929 44bd 63e3 10be 8835 013d
-0.04365163 0.10443135 0.11287413 -0.14190137 -0.17605203 -0.19888382 -0.18865138 -0.27471444
-0.21366976 0.036643095 -0.023860259 -0.15609726 -0.06958294 0.062382046 -0.046331666 -0.049351808
-0.23745634 -0.08144854 -0.08725708 -0.0782028 -0.07069235 -0.10994053 -0.043479234 -0.011315012
0.003546544 -0.08696074 -0.079192884 0.09049263 -0.17217654 -0.11066244 0.0579762 0.009686274
0.19512725 -0.033948246 0.05001278 0.07699291 -0.12013017 0.1859321 -0.1448798 0.09505447
-0.0031846093 -0.03619061 0.0594406 0.0074149133 -0.06156195 0.10119509 0.118737355 0.04728946
0.17995441 0.12215957 0.22636662 0.09692443 -0.008578874 0.21780358 -0.045324057 0.084056914
0.03311374 0.023739347 -0.025841001 -0.03670329 -0.013212203 0.15709518 -0.00024306304 -0.067342564
0.18872008 0.15288241 0.0938656 0.12682858 0.12007395 0.10519415 -0.08764525 -0.015894508
0.15947 0.23430152 0.117311634 0.0009903437 0.18445559 0.16128105 0.062285677 0.18668918
0.072157495 0.13083863 0.03104615 0.1823215 -0.032499116 0.09263461 0.0102149565 0.0551923
0.20977286 -0.055910893 0.107211724 0.06587234 -0.040406384 -0.1099778 0.05294398 -0.13215622
0.069742605 -0.14429046 -0.110574156 0.021362074 0.15092821 -0.12594025 0.022752797 -0.016402265
-0.08774028 -0.05630902 0.10102706 -0.107262015 -0.07138206 0.01373984 -0.1289489 0.01015901
0.016911363 0.029449612 0.052159596 0.16526242 0.048842605 0.14300242 -0.05888038 0.019829683
-0.044386975 -0.13942192 -0.03364943 -0.04282315 -0.094726205 -0.03440128 -0.1413676 0.02616524
0.04035752 -0.027022136 0.10933362 -0.16217326 -0.0842396 0.10524239 0.033105265 -0.056022357
-0.033771917 0.029681947 -0.066300526 0.13537468 -0.0011534002 0.17829649 0.16573104 0.16720484
-0.0794904 0.07802506 -0.034342673 -0.02386465 0.089468665 -0.114609875 -0.016472995 0.08918486
-0.026560817 0.19278388 0.15247717 -0.050668303 0.059317216 -0.10140698 0.113203175 0.0038289125
0.07581659 -0.025956487 0.15389158 0.070305005 -0.07888529 -0.13196544 -0.029610163 0.026215484
-0.04619345 0.009370664 -0.12599471 0.0076282085 0.07023853 -0.08367558 -0.07561787 0.058422975
0.120707735 0.0015586722 -0.038930517 0.09101235 0.030623004 0.09198943 -0.0724598 -0.06185778
0.06531522 0.07503745 0.039038017 0.040338155 0.0005788615 -0.095118254 -0.0046751457 7.892593e-05
0.052106097 -0.013513954 0.16340634 -0.020489302 0.10329102 -0.20602626 -0.1157113 -0.10693618
-0.046668794 -0.17997499 -0.06345078 0.12036211 0.06113352 -0.014879458 -0.03815094 0.042944472
-0.1392073 0.008772357 -0.2282613 -0.1903612 -0.20167282 0.014037928 -0.014179522 -0.1171446
-0.06997784 0.14003564 -0.11617432 -0.19812013 -0.124628074 -0.048542295 0.1317373 0.036198366
-0.031164743 -0.047512222 -0.10038694 -0.11711884 0.09221742 -0.109737664 -0.12019876 -0.12883739
0.041107748 -0.18347676 0.13483866 0.030999813 -0.0347882 0.09034355 0.09818605 -0.10972304
0.014344358 -0.18150337 -0.019693442 0.14409213 0.15585041 -0.09330281 -0.082258284 -0.1547761
-0.09708212 0.018925317 0.11015175 0.124183945 -0.11202299 -0.04789147 -0.14149241 0.031545192

linear_relu_stack.0.bias f4 [64]
00000000: 8945 ad3e 28a3 9dbe d73b b4bb a559 353e
00000010: 0843 87be 5f9c ca3e 92d5 30be 8103 9fbe
00000020: 2600 253f ecd1 04be 8ddd f0be 0858 52be
00000030: 57b7 b2bd bee4 3f3f a065 aebe f420 c03e
00000040: d51e 59be 3acd 1dbf 4376 f0be 4d2e d4be
00000050: 9731 6a3d ba3b 913e 0faf 8fbe 6acd 0e3f
00000060: 4fda 163f 22b0 67be 345f 0abf e366 f7be
00000070: c756 763e fd5f bfbe 917f e0be 6d1d df3c
00000080: 312e 213f eab0 283f 02a1 a6be 60ff 053f
00000090: d56d 323f 0a96 bbbe 5958 7e3e cfcb 07be
000000a0: 7d90 4c3f 46fe 2b3e 416b fabe 7ebf bebe
000000b0: 45a1 00bf 6e8c acbe a331 13bf baa9 c7bd
000000c0: 36e7 073f 9ebf f0be 53ba b13e ec2a 2e3f
000000d0: c68c 16be a943 debe a2d4 c33e 21a9 24be
000000e0: f4d2 3a3f 556b cfbe 9e42 babe da7a 91be
000000f0: 0b3c 453e 95e0 d9bd f272 043f ff11 3c3e
0.33842114 -0.3078854 -0.0055002975 0.17709978 -0.26418328 0.39572427 -0.1726897 -0.3105736
0.6445335 -0.12970704 -0.4704403 -0.20541394 -0.087263756 0.7495841 -0.3406191 0.3752514
-0.21203168 -0.61641276 -0.46965227 -0.41441575 0.0571762 0.2836588 -0.28063247 0.55782187
0.5892686 -0.22625783 -0.5405152 -0.48320684 0.2405654 -0.3737792 -0.43847325 0.027235711
0.6296111 0.6589495 -0.32544714 0.52342796 0.6969884 -0.36637908 0.2483839 -0.1326134
0.7990797 0.16796216 -0.48909953 -0.37255472 -0.5024608 -0.3370089 -0.57497615 -0.0974917
0.53087175 -0.47021192 0.34712467 0.68034244 -0.14702138 -0.43410996 0.38248163 -0.16080143
0.7297814 -0.40511575 -0.3637895 -0.2841404 0.19261186 -0.10638539 0.5173789 0.1836624

linear_relu_stack.2.weight f4 [64, 64]
00000000: 6b70 163d af6a 693d 6546 67bd 6f78 613c
00000010: 5272 a23b dfde 973d ef88 9ebd 659c 023e
00000020: 38ef eebc e881 2c3d deca d9bd 75f7 31bd
00000030: e66c 8dbd da4a 5abd 4892 c7bd 7992 dd3c
00000040: 683a f53d fa85 c53d db9a a7bd 93af 62bc
00000050: a3b3 09bd a465 52bd edba 66bd fe0a 063d
00000060: b392 5fbd 9c29 b5bd 0458 853c 69f2 eb3d
00000070: 4e17 b3bb 5349 f83d 563d 9bbd 86af a03d
00000080: 2ae1 c4bb 5411 af3d c622 453c d3f4 023d
00000090: 1b25 d8bd 035c c1bc e4ae c6bb d120 abbc
000000a0: 4f07 a23d c1da 17bd 76e1 4fbd 0b38 bcbd
000000b0: 8b7b 193d a817 d13d 4da1 913c 8653 a3bd
000000c0: a9ca 3d3d 5809 b73c 1bbe 9f3d 4c70 a1bb
000000d0: 5720 ef3d 3305 d43d bc1f adbd 920e da3d
000000e0: 294d 2fbd 0ac0 fcbd 8574 eb3d a029 92bd
000000f0: 4f42 863c ad45 e13d a1a2 82bd 6af9 b53d
00000100: c8d2 fa3c ba4e d6b9 da98 3f3d 0005 85bd
00000110: 84a9 65bd 06c9 dcbd abe5 cf3d e8be 5dbd
00000120: 2f4b e33d 75ff 4d3c 6fc0 e1bb 3966 df3d
00000130: ec5c 6d3d a401 aa3d 023b 9dbc 99a9 513d
00000140: d9eb f4bd 973d 22bd 6fe3 15bb c226 d7bd
00000150: f319 c1bc 9d5d 263d 79ef a83d b07a 1f3d
00000160: c9ec 0fbd 5f66 84bd 8a73 a8bd 6f4e 44bd
00000170: 3828 73bd cdf9 d9bd f207 b83c 77e2 a9bd
00000180: 0ca8 74bb 2d18 bd3d e5a7 aebd ba16 9f3d
00000190: f414 d1bd 6797 e7bd a7e3 f33d f534 80bd
000001a0: 6cb7 d83d 1062 d93d 976e 1e3d e611 77bd
000001b0: 71ae 053d 616f c43c d9cb db3c 5784 6a3c
000001c0: f80b f93d ea8f 7b3c 3a13 863d e69f 36bd
000001d0: 765d 2fbd c36c d13d 7c6e 1bbc 1853 453d
000001e0: dbe0 64bd daaf ba3c 1cee c2bd 7e36 823c
000001f0: e2d6 a33c 5e38 22bc 85b1 483d 586d 843d
00000200: 78ba b43d d218 eabd 73b5 2cbc 4bfc 2e3c
00000210: 0962 a93d 2809 cabd f6e2 90ba 4970 cebc
00000220: c959 aabc 8ce1 593d 6e79 523d 405a edbd
00000230: 4611 9b3c 1ec1 49bd 5a9a 813d 3e7b 55bb
00000240: 2636 aa3c 0796 4abc d939 c93d 3990 d5bd
00000250: a0bc 5a3d 1812 113e 5041 4cbd fba6 043d
00000260: 4842 78bd 1ccd 7fbd c8f7 8dbd c7f1 793d
00000270: c82d a93d cbd6 28bc 3b2a 00bc dd7c 2dbe
00000280: 5579 883d ac09 693d 4142 d8bb 88e4 9dbd
00000290: 1ca9 843d 0ecd a7bd 5237 a83d 1e18 ccbd
000002a0: 3fa7 323d 90a5 b2bd 75cf 8b3c fe67 f83d
000002b0: 9b98 b13d e291 bcbd 3a57 febc 725b a43c
000002c0: 3401 23bd 6f49 b1bc ad85 c23d 7a6e c0bd
000002d0: f6d6 cbbd 71ed d5bd 5e8f 55bb 808c aebc
000002e0: bda3 083d 43f4 8cbd 234a 85bd 5693 6dbd
000002f0: edaf 413d af5a f63d 29ce e0bd b0c4 933d
00000300: 032f aa3d 5afc 8fbd c463 99bd 50f2 9c3d
00000310: 3b63 a9bc 0473 8d3d 140f 1b3d 1519 bfbd
00000320: 9744 a83d dc43 9a3b ed00 22bd 8d39 1f3a
00000330: 5dfc 37bd 91d1 84bd b345 1cbd ab3e c5bd
00000340: fd36 e0bd aeb6 2ebc b1d0 aebd 88ad 303d
00000350: a27b c53d 4051 57bc 3732 e2bd 08e4 d4bd
00000360: 8d82 863d ec00 993b 5c74 d6bd a9de 5ebd
00000370: 6f05 423d e451 393c 07fd 733d c15f 173e
00000380: 85d8 29bd 71b0 0fbd bb19 03be 8984 003e
00000390: 5adf cdbb 01bf a3bc 3930 8ebb 3a1f 69bd
000003a0: 191e b33c 7af2 c33d 0cdb 513d 4aff ea3c
000003b0: 03de 9abd 6f08 933d 9a0e 023e f915 d3bd
000003c0: be51 2dbd 9a35 f13d 59e4 e43d 7dfd 3d3d
000003d0: 666d e63d d892 6bba f5a0 dc3c 538d 7a3d
000003e0: 0622 eb3d b49a bdbd f5df 7b3d 3e72 8a3d
000003f0: eae9 43bd 6f2f 67bd d12a 4f3d 3c0d 96bd
0.036728304 0.056986507 -0.056463618 0.013761624 0.0049574757 0.07415556 -0.07740962 0.12754972
-0.029166803 0.042116076 -0.10634397 -0.043448884 -0.06905536 -0.05329404 -0.09744698 0.027047383
0.11974031 0.096446946 -0.08183833 -0.0138358055 -0.03361858 -0.051366463 -0.05633061 0.032725327
-0.054583263 -0.08845827 0.01627732 0.115208454 -0.0054654246 0.121233605 -0.07580058 0.078459784
-0.006008287 0.08548227 0.012032216 0.031971764 -0.10553952 -0.023603445 -0.006063329 -0.020889672
0.0791155 -0.037073854 -0.050752126 -0.09190377 0.037471335 0.1020959 0.01777711 -0.07974915
0.04633585 0.022343323 0.077999316 -0.004926717 0.1167609 0.10352554 -0.084533185 0.1064731
-0.042798195 -0.12341316 0.11496834 -0.071368456 0.01638904 0.10999618 -0.06378675 0.088854626
0.030618086 -0.00040875917 0.04677663 -0.06495094 -0.056069866 -0.1078053 0.101512276 -0.05413714
0.110983245 0.012573113 -0.006889395 0.10908169 0.057949945 0.08301094 -0.019193176 0.05118713
-0.11959047 -0.039609518 -0.0022871157 -0.10505439 -0.023571944 0.04061662 0.08248801 0.038935363
-0.035137925 -0.06464838 -0.08225162 -0.047926363 -0.059364527 -0.10643349 0.022464726 -0.08295148
-0.003733161 0.09233127 -0.08528117 0.077680066 -0.102090746 -0.113081746 0.119086556 -0.06260101
0.1058186 0.10614407 0.038679685 -0.060319804 0.032637063 0.02397889 0.0268306 0.014313779
0.12160486 0.015354136 0.06546636 -0.044586085 -0.04281374 0.10225823 -0.009486791 0.048174948
-0.0558785 0.02278893 -0.09518072 0.015895125 0.019999925 -0.009901134 0.04899742 0.06466168
0.088246286 -0.11430515 -0.010541308 0.0106802685 0.08270652 -0.09865028 -0.0011053968 -0.025200026
-0.020794766 0.053193614 0.051385336 -0.115894794 0.018929135 -0.049256437 0.06328268 -0.0032574679
0.020777773 -0.012364871 0.09825487 -0.10427899 0.053402543 0.14167058 -0.049866974 0.032385807
-0.060610086 -0.062451467 -0.06932026 0.061021592 0.08260685 -0.010305117 -0.0078225685 -0.16942163
0.06663767 0.05689399 -0.006599695 -0.077096045 0.064775676 -0.08193408 0.082136765 -0.099655375
0.04361653 -0.08722985 0.017066697 0.1212921 0.08671685 -0.092075124 -0.031047452 0.020063136
-0.03979607 -0.021641461 0.09498153 -0.09396072 -0.0995311 -0.10445679 -0.0032586674 -0.02130723
0.033359278 -0.06882527 -0.06508281 -0.05800184 0.047286917 0.12029015 -0.10976822 0.072152495
0.08309748 -0.07030554 -0.07489732 0.07663405 -0.0206772 0.06906703 0.037856176 -0.09330956
0.082162075 0.0047077965 -0.039551664 0.00060739444 -0.044918407 -0.06485284 -0.038152408 -0.096310936
-0.10947988 -0.010663671 -0.085358985 0.043134242 0.09642722 -0.01314193 -0.11044734 -0.10395056
0.06567869 0.0046692993 -0.104714125 -0.054411564 0.047368463 0.011311028 0.059567478 0.14782621
-0.041466255 -0.035080377 -0.12802784 0.12550558 -0.006282729 -0.019988539 -0.0043392447 -0.056914546
0.021864938 0.09567733 0.05123429 0.028686184 -0.075618766 0.07179343 0.12700883 -0.10306925
-0.042314284 0.11777802 0.11176366 0.046384323 0.11251335 -0.000898642 0.026932219 0.061169934
0.11481099 -0.09258023 0.06149288 0.06760071 -0.0478305 -0.05644172 0.050577942 -0.07326743

linear_relu_stack.2.bias f4 [64]
00000000: a464 8cbe b0d9 3e3f 9a24 dc3e 1e1d 013f
00000010: b46a 163b 9de4 5f3b c57d 37bf 8092 163f
00000020: 9892 16bf b338 b73d 45bc d8be 0b63 c8be
00000030: e123 013f 5f6b 1a3f ddcd 1e3e bb0a cdbe
00000040: cac8 bdbd bf90 c63e 65ef 103d 6ea7 133f
00000050: 5b68 0a3e 38b3 8b3c aecd 393e e94d 53be
00000060: 7310 11bf 77d7 b9bd 6faa abbc 284b 3ebf
00000070: 1949 f03e 4c78 1ebf 5afe 88be b053 023f
00000080: 72c8 0ebd 4eec dcbe b574 32be 43ad 043f
00000090: 0a31 bc3e 2318 71be 21e9 fbbd f9ad 0fbf
000000a0: 4fb5 aa3e 1b1b 7b3d 9754 9dbe e297 c3be
000000b0: 8085 f53e 3e5e 683e 5e76 383e 723b ea3e
000000c0: 17d8 023f b7fd c0be 8b81 6cbe 6acb 1fbf
000000d0: 1f90 ac3e 5254 c6be 4541 493e d0a2 83be
000000e0: be65 093f 97ee 113f de62 2d3f 2e10 3abf
000000f0: 7e33 5abe 0b5f 3b3f 7b7d efbe 0902 38be
-0.27420533 0.74550915 0.42996675 0.50435054 0.0022951784 0.0034163364 -0.71676284 0.5881729
-0.58817434 0.089463614 -0.42331138 -0.39138064 0.5044537 0.60320085 0.15508218 -0.4004725
-0.09266813 0.38782308 0.035384554 0.5767735 0.13516371 0.017053232 0.18144867 -0.20635189
-0.56665725 -0.090743 -0.020955293 -0.7433343 0.4693077 -0.6190231 -0.26756555 0.50908947
-0.03485913 -0.43149036 -0.17427333 0.51826876 0.36756164 -0.23544364 -0.12300325 -0.56124836
0.33341452 0.061305147 -0.307286 -0.38201815 0.47953415 0.226922 0.18013903 0.45748478
0.51110977 -0.3769357 -0.23096292 -0.6241976 0.33703706 -0.38736206 0.19653805 -0.25710154
0.5367087 0.57004684 0.67728984 -0.7268094 -0.21308705 0.731919 -0.46775422 -0.17969526

linear_relu_stack.4.weight f4 [64, 64]
00000000: 12db 47bd 7962 86bb 5729 7a3a 9c7e c5bd
00000010: 59b3 b7bc 2cc1 dbbd 8734 b63c 2dd0 c6bd
00000020: 4914 f9bd 1e96 6f3d ed57 f0bd 4b0f a53d
00000030: 2d46 443b cc27 ea3d fa03 94bd dee7 493d
00000040: be5e 2c3c 47a3 513e 6cb1 b0bd 50dd e73b
00000050: bf14 b5bd a4e9 4c3d 84c0 f33d c7f8 80bd
00000060: bb30 e4bd d805 8a03 41df 32bc dd68 923c
00000070: 4104 f0bb eb6c 5e3d ee7a 35bd 4a32 b4bb
00000080: 49e2 44bd 6e88 393d d973 023d fda3 cd3d
00000090: 14ef c13d 7d6d afbd ccba 5bbc 3774 bfbb
000000a0: d3d3 6cbd ea00 ed3d c3c6 aebd 2114 ef3d
000000b0: c9af 54bd 7fb3 e4bd 2ff9 6d3a ed35 15bd
000000c0: 38d7 babd 98c3 03bd cb04 813d f5b8 22ba
000000d0: d446 f73d 2d9f 013d 4809 54bd 3798 02be
000000e0: 29c6 06bd c169 9fbd afdd 013d 0299 13bd
000000f0: e70e b9bd 3ab5 b13d 14dc e3bd 6357 7dbd
00000100: b25c 7b3d bb6c 423d ed00 913d 7459 903c
00000110: aefe d3bd 71c8 013d 3b56 e4bd a95a fbbd
00000120: 608d fb3d f601 9fbc d391 a6bd 90e2 f73d
00000130: f819 53bd b563 c8bd 0998 6e3d 2ac8 d63d
00000140: 762b 6cbd 7dcb 9f3d 1967 76bd ad1e f4bc
00000150: 53a9 993d 058a 573d b4b7 c73d 1e56 1ebd
00000160: e25b 933d 28b8 9d3d bafb 4abd a0c9 ebbd
00000170: 3792 503c 22dd 3d3d 9100 d3bd 396f dfbd
00000180: 818c ce3d b7b2 c93b 5517 aabd ebfd fd3d
00000190: d3eb c63d d8ab 53bd 0a04 123c cb67 e0bd
000001a0: e97e 193d 5389 843d 5d50 b53d d2f2 ec3d
000001b0: 6540 923c a916 c0bd fc2e f2bd 6cd7 da3c
000001c0: 9d3e 6e3d aa61 96bd 3a09 023c fefc dcbd
000001d0: 9db0 313d 7b15 2f3d 68ea 04be cee9 81bb
000001e0: 0b45 d3bd e1e4 adbd 7993 98bd f802 ae3d
000001f0: 95d4 64bd 16e0 38bc bde4 f03d 5aef ddbd
00000200: 84f9 7a3d a137 46bc ab4a 293b 5312 bc3d
00000210: f6fb 4abe b45d 443d 1a98 803d e341 b6bc
00000220: fbd9 813c 1395 b93d 49b7 aebd 49f4 d53d
00000230: 1caf 9cbd f44b 8c3d b273 e03d 30d8 223d
00000240: 623b d4bd 85f0 7f3d d839 f53c ccdc 17bd
00000250: 43b0 a03d 77ee b83d 4d1b 293d 830c bbbd
00000260: 466f 6c3d 28ed 1abd eab7 63bd a226 eb3d
00000270: 9013 abbd eda3 b6bd b7ba 5fbd 2bb0 033e
00000280: 5e8f 48bd 0860 b4bd 5145 98bd 6fb2 62bd
00000290: 9532 643d a45f 5a3d 2330 953d def3 fc3b
000002a0: f61e ccbd 4559 aebd b868 7c3d 3424 ebbd
000002b0: 2552 ca3c 5833 babd 6a71 7ebc 7cc8 2abd
000002c0: 615c 903d ea6b 6f3d fffb c1bd 7249 a9bd
000002d0: 5183 133d 7d83 563d 3dbb 57bd 5036 11bc
000002e0: abd3 04be 1257 613d 0f41 b13d 9f01 14ba
000002f0: 4fd3 46b9 1459 b8bd a406 92bd 5416 cfbd
00000300: 8534 c4bb dd79 cabd d193 83bd cad0 383d
00000310: 85d0 b0bd 4e87 893d 87ec c73d 6edd 4b3d
00000320: c428 8b3d 6df9 a4bd 8a73 5d3d 584c 823c
00000330: 3bd4 b5bc 8da8 5bbc 31de 70bd 3c1e 5c3c
00000340: 2ca8 ecbd e83e 45bd e196 163d 8447 da3c
00000350: eeb7 07bc 904a e4bd 7bfc acbd 9d02 dfbd
00000360: 28c5 ed3d 611f 93bd cbf4 c83d 7c8a 013d
00000370: 4f17 733c ca91 193d 7117 8ebd 6b45 32bd
00000380: 4666 893d 00e5 0abd 5dce d1bd 7d96 753d
00000390: 77af 39bd 1900 a8bd fe5c 5f3d cd7a 913d
000003a0: 3e82 9f3d 626a c83d 0bff 4e3d b229 a8bd
000003b0: 7122 683d f77e 13bd 5ded ff3b cebb a43d
000003c0: e059 93bd de8f c9bd 2800 ebbd 724e aa3c
000003d0: da6d 4b3d 3e86 b83d 7ace ef3d 9179 ed3c
000003e0: c670 eb3d ec5c a6bc 093a 973d 61bb b5bd
000003f0: 88c2 a0bd 62a6 3d3d 2f0d 973d db2f 823c
-0.048792906 -0.0041010943 0.0009542903 -0.096432894 -0.022424387 -0.10730204 0.022241844 -0.09707675
-0.12162072 0.058492772 -0.117355205 0.080595575 0.0029949055 0.11433372 -0.07227321 0.04929339
0.010520635 0.20472442 -0.086275905 0.007075943 -0.08841848 0.050027505 0.11901954 -0.062974505
-0.11142107 8.112253e-37 -0.010917486 0.017872268 -0.007324726 0.05430309 -0.044306688 -0.005499159
-0.048067365 0.045296125 0.031848762 0.10041044 0.09469429 -0.08565805 -0.013411235 -0.0058427113
-0.0578192 0.1157244 -0.085340045 0.11673761 -0.051925454 -0.11167049 0.0009077964 -0.03642838
-0.09123081 -0.032168955 0.06299742 -0.00062073703 0.12074056 0.031645942 -0.051766664 -0.12753378
-0.032903824 -0.07783843 0.031705555 -0.03603459 -0.090360455 0.08677144 -0.11125961 -0.061850917
0.061367698 0.047466975 0.07080255 0.01762078 -0.10351311 0.031685296 -0.1114926 -0.122731514
0.122828245 -0.019410115 -0.081332825 0.1210376 -0.051538438 -0.097846426 0.05825046 0.10487397
-0.057658635 0.07802484 -0.060156915 -0.029799784 0.07502999 0.05262186 0.097518355 -0.038656346
0.0719526 0.07701141 -0.04955647 -0.11513066 0.012730173 0.046353467 -0.103028424 -0.10909886
0.10085393 0.0061553377 -0.083052315 0.12401947 0.09712949 -0.051677555 0.008912096 -0.10957297
0.037474547 0.06471505 0.08853219 0.11569752 0.017852971 -0.09379322 -0.11825368 0.02671405
0.05816518 -0.07342847 0.00793677 -0.10790442 0.043381322 0.042745095 -0.12980044 -0.0039646393
-0.10315903 -0.08490921 -0.07450003 0.0849666 -0.055866797 -0.011283895 0.11762378 -0.10836668
0.061273113 -0.012098224 0.002583186 0.091831826 -0.19822678 0.047940925 0.06279011 -0.022248214
0.015851011 0.09061637 -0.085310526 0.10446984 -0.07650587 0.068504244 0.10959567 0.039756954
-0.10362889 0.062485237 0.029934809 -0.037075803 0.07846119 0.090298586 0.0412858 -0.09133246
0.057723306 -0.037823826 -0.055595316 0.11481978 -0.083533406 -0.08917985 -0.054621425 0.12860171
-0.04896485 -0.08807379 -0.07435096 -0.05534595 0.0557123 0.053313866 0.07284572 0.007719501
-0.09966843 -0.085131206 0.061623305 -0.114815146 0.024697373 -0.09091824 -0.01552997 -0.041695103
0.0704887 0.058452524 -0.094718926 -0.08265962 0.036013905 0.05237149 -0.0526688 -0.008863047
-0.1297137 0.055014677 0.08654987 -0.00056459935 -0.0001896147 -0.09001365 -0.07130173 -0.101116806
-0.005987706 -0.09886525 -0.06424678 0.04512099 -0.08633522 0.067152604 0.09761911 0.04977172
0.06794885 -0.08055387 0.054065265 0.015905544 -0.022195926 -0.013406885 -0.05880565 0.013434943
-0.11555514 -0.048155695 0.036764983 0.02664543 -0.008283598 -0.11147034 -0.08446594 -0.1088917
0.1160987 -0.071837194 0.098123156 0.03162621 0.0148371 0.03749255 -0.06938065 -0.043523233
0.0670896 -0.033909798 -0.10244439 0.05995797 -0.045333352 -0.082031436 0.054532044 0.071035005
0.077885136 0.09785916 0.050536197 -0.08211078 0.05667347 -0.036009755 0.0078102783 0.080436334
-0.07194877 -0.098418936 -0.11474639 0.020789359 0.04966531 0.0900998 0.11709304 0.028988631
0.11496119 -0.02030798 0.07384116 -0.0887363 -0.07849604 0.046301253 0.073755614 0.01589196

linear_relu_stack.4.bias f4 [64]
00000000: 8e5c 433e 4a87 cdbd 03e3 c2bd 2453 be3e
00000010: f665 0d3f 0f59 4cbe a22f f6be 46ad 023f
00000020: 7107 5abd 0f33 b63e 5d0e 9c3e f1ba 07bf
00000030: 143c 9c3e 5744 fc3e f809 98be 4ebe 18bf
00000040: 5ef9 1d3f bd75 c0be d7ec 113f 096d 15bf
00000050: 4c89 9bbe e0c4 833e db32 8fbd 5524 dbbe
00000060: 1b36 0fbf 255c 223e 639a 113e d4c3 e23c
00000070: d3fb 1f3f e71e dfbe 8cf2 a13e 81f5 1abe
00000080: 988a 4abe d864 fe3e 2740 c9be 4752 4d3e
00000090: 3e70 fabe 49ac ec3e fbfb 093f 73d8 12bf
000000a0: 36b9 e53e f363 d23e 685d d33e 8a74 153f
000000b0: 1f9f e2be 58b1 26be 5d4d 2d3f 214d 413f
000000c0: 822d 483e b190 533e f28c d7bb 8e1d 97be
000000d0: c23d d6be a838 de3e 8325 f73e 313b 683e
000000e0: 178e 67bd 1e4c 55be 4e1e e3bd c441 8fbe
000000f0: 9368 203f ffc9 3c3e 09c6 093e 51fe 2fbf
0.19078276 -0.1003557 -0.09515955 0.37172806 0.55233705 -0.19955848 -0.48083216 0.51045644
-0.053229753 0.3558583 0.30479708 -0.53019625 0.30514586 0.4927089 -0.29695106 -0.5966538
0.6170863 -0.37589827 0.57002014 -0.583695 -0.30378187 0.2573614 -0.06992122 -0.42801157
-0.55941933 0.15855463 0.1421905 0.027681269 0.6249363 -0.43578264 0.3163036 -0.15132715
-0.19779432 0.49686313 -0.39306757 0.20050918 -0.4891376 0.46225193 0.53900117 -0.57361525
0.44867867 0.4109188 0.412822 0.5838095 -0.44262025 -0.16278589 0.6769617 0.75508314
0.1954861 0.20660664 -0.0065780813 -0.29514736 -0.41843992 0.434026 0.48270807 0.2267883
-0.05653199 -0.20829818 -0.110897645 -0.27979863 0.6265957 0.1843643 0.1345445 -0.6874743

linear_relu_stack.6.weight f4 [32, 64]
00000000: 2da4 953d 9661 d1bd de3c e83d 8a87 b2bd
00000010: 5da7 4d3d 1611 9a3d bf02 b9bd 0b39 bebc
00000020: ec73 fd3d a278 fc3d 4d55 edbd 8209 c93c
00000030: 03a4 613d 715e 4fbd 1bf9 733d 5aaa 4cbc
00000040: 2ff2 b63d 7789 a63d 057d 96bd 937d eb3d
00000050: 5f9b 0e3d 5808 75bc 8483 943d d112 0a3d
00000060: 12c4 dabc 63ba 35bd 7bb9 ce3d c26e f8bc
00000070: ac76 bcbd d194 e7bc 68a1 8abd 59d8 133d
00000080: 827e f03b 5007 f23c c329 bdbd 8c31 863d
00000090: 7762 ce3d 64e7 8abc c17c f43d 8685 bd3d
000000a0: 127d c6bd c85d 74bc 7513 88bd f15b ac3c
000000b0: a792 973d 9fdf cfbd d915 f93d 0376 93bd
000000c0: 650d e7bd 88a0 bfbb 182c 943c b20d 043e
000000d0: cc79 073d ba9d c83c ae5f 0ebe ad42 d8bd
000000e0: 9eff 853d c925 b0bd ba0b 4dbd c334 0f3d
000000f0: 0ef9 c8bd 5c5f 4f3d 9a49 123d 9da7 b43d
00000100: df8c d43d fa88 e8bd b40b cb3c 94a6 f13d
00000110: d0a4 433d e36c 493c 858e b7bd d161 e63d
00000120: dd9c eb3d 52e8 0fbd af58 823d ed3a 473d
00000130: 9a7d 073e f5f6 063e 5fb7 be3c 989c 10be
00000140: 0bd0 323c 871b 95bd 4f03 183e 036f 30bd
00000150: 7ad9 8ebd 2068 743d 5a28 113b 39b4 31bd
00000160: 0067 56bd 4168 b73c 5155 9c3d 9dbd 12bd
00000170: 1aa5 afbc 3ed6 dbbd f9ad c2bc 8c41 51bd
00000180: 808c b93d cd59 1ebd 7533 aabc ab71 3cbd
00000190: 073f 2fbd 5141 0c3e 7124 8fbb 5c8f dfbd
000001a0: 393e 4cbc 304d d23d 552e b63c 1c68 d5bd
000001b0: 0f29 9bbd 23c2 56bc 1905 733d 1b14 203c
000001c0: 9ce5 063e 1ce0 a2bd 49fb 30ba 2c63 29bd
000001d0: c331 c8bd 8886 8a3c dc63 2e3e 6067 9f3c
000001e0: fc6f a43b 23d1 a43d 4530 a503 b8b9 65bc
000001f0: c78b 053e f8a9 0bbd 01e5 c13d 5208 d9bd
00000200: f721 dcbd 12f0 98bd 2aea 953d 2c06 bc3c
00000210: cbea ea3d 560c e03d d144 d73d 2e0e f3bd
00000220: 421f c5bc 4737 9dbc 9805 b93d 76f3 eebc
00000230: 5b3c 10be 690c 803d be5d 5c3d 9df7 063e
00000240: 48a4 6abd 5b5c d13c 4e83 14be e9d4 f23c
00000250: 7875 acbd 26fb ea3c e1a7 a5bd dfbf 85bd
00000260: ccfe 08bd 07b6 8b3b 1830 bfbc 6f10 a73d
00000270: 6da3 663d a769 eebc d5e8 093d 1170 f23d
00000280: 5053 81bd f8e4 b8bc 4ab7 693d 9e7f 243c
00000290: b503 e0bd 2333 84bd e7e5 e73d df57 59bc
000002a0: 13d9 013e d6b1 923d a069 67bd 49dc d73c
000002b0: ad0b b23d 22e9 babd 73b0 1f3d 936d 043c
000002c0: d94b 28bc b26a cfbd b75f 14bd e043 633d
000002d0: cb0f b3bd 2755 90bd 263c 86bd 2997 6e3c
000002e0: dece 5e3c 9ce4 30bd d3c2 b23c 9aef f13d
000002f0: b4ef f1bc aad0 b73c 15ad a0bd 2160 0b3b
00000300: c9b8 d33d df7b cc3c da92 f5bd 2bea 5039
00000310: 48ac d9bc 87e9 2bbd 5f84 e33d 82a6 603d
00000320: d11b 953c fc70 a63d 777b d63c b3ba f0bd
00000330: 48a7 133d 53cd adbd 071a 16bd 111c 1c3d
00000340: 2afe 5bbc a4e7 a9bd 075a d7bc 553e f53d
00000350: b986 623c f63c 943d 14a8 c0bd dcc1 d63d
00000360: 0b12 62bc 33b1 143d 5ccb 00be 9c61 adbc
00000370: 1ddc 793c c8a0 d6bc 2487 e63d e6e3 aa3d
00000380: 2c53 403c 69cd 133c 476e 413d e024 e7bd
00000390: 50b5 60bd 6c13 03be b526 f03d 669d 2e3d
000003a0: a6b2 51bd 92eb d73d 1326 0b3d d295 e4bd
000003b0: a41b 70bd e3dd d13d 9f7b 86bd 2ab8 003d
000003c0: b967 8f3a 821c 86bc a6aa ef3c b081 503d
000003d0: e3aa c03c 3e6e b8bb a33a cdbd a6cc 57bd
000003e0: d569 8cbd a73a aa3d 24b9 15bc 9a5b ccbd
000003f0: 8663 a93d 7f09 89bd 268a 563d 30d1 00be
0.07306705 -0.10223691 0.113397345 -0.08717258 0.05020844 0.0752279 -0.09033727 -0.02322056
0.12375626 0.123276964 -0.115885355 0.024540666 0.055088054 -0.050627176 0.059563737 -0.012491787
0.089329116 0.08131688 -0.07348064 0.11498561 0.034816142 -0.014955603 0.07251647 0.03370935
-0.026704822 -0.044367205 0.10093971 -0.030326251 -0.09202322 -0.028269203 -0.06769067 0.036094997
0.0073392997 0.029544502 -0.09236481 0.06552419 0.100773744 -0.016956039 0.119378574 0.09253983
-0.09691824 -0.014914937 -0.06644336 0.021039935 0.074010186 -0.10150074 0.1216237 -0.07200243
-0.11281852 -0.0058479942 0.018087432 0.1289585 0.03307514 0.024489272 -0.13903686 -0.105595924
0.06542896 -0.08600957 -0.05006001 0.034962427 -0.098131284 0.05062805 0.035714723 0.08821032
0.103784315 -0.11354251 0.024785854 0.117993504 0.0477646 0.012294027 -0.0896273 0.11249126
0.11504529 -0.035133667 0.06364571 0.04864018 0.13231507 0.13180144 0.023280798 -0.14122236
0.010913859 -0.07280641 0.14845012 -0.04307462 -0.06975074 0.059669614 0.0022149296 -0.043384764
-0.052344322 0.02238858 0.0763346 -0.03582536 -0.021441031 -0.10734223 -0.023764597 -0.0510879
0.090600014 -0.03865986 -0.02077649 -0.04600684 -0.042784717 0.13696791 -0.004368358 -0.109160155
-0.012466007 0.102686286 0.02223889 -0.10420248 -0.07576191 -0.013107809 0.059331033 0.0097704185
0.13173527 -0.07952902 -0.00067513116 -0.041354343 -0.09775116 0.016909853 0.17030281 0.019458473
0.0050182324 0.08047702 9.7089105e-37 -0.01402133 0.13041602 -0.03409764 0.09467507 -0.1059729
-0.10748666 -0.07467665 0.07320054 0.022952162 0.114705645 0.10939853 0.105111726 -0.11867939
-0.024062756 -0.019191397 0.0903427 -0.029168826 -0.14085524 0.06252367 0.053800337 0.13180394
-0.057285577 0.025556734 -0.14503214 0.02964254 -0.08420843 0.02868421 -0.08088661 -0.06530737
-0.03344612 0.0042636427 -0.023338363 0.08157431 0.0563082 -0.029103113 0.03366931 0.11837781
-0.06314719 -0.022570118 0.057059564 0.010040192 -0.10938207 -0.06455066 0.11323147 -0.013265579
0.12680463 0.07162826 -0.056497216 0.026350157 0.08693633 -0.09126498 0.038986634 0.008082765
-0.01027199 -0.101277724 -0.036224093 0.055484653 -0.08743247 -0.070474915 -0.06554441 0.014562407
0.013599126 -0.04318677 0.021821415 0.118132785 -0.029533245 0.022438366 -0.07845513 0.0021267014
0.10337979 0.02496141 -0.119909 0.0001992366 -0.026571408 -0.041970756 0.11109232 0.054846294
0.01820174 0.08127019 0.02618192 -0.1175436 0.036048204 -0.08486428 -0.036645915 0.038112704
-0.013427297 -0.08296135 -0.026288046 0.119747795 0.013826066 0.0723819 -0.09407058 0.104861945
-0.013798247 0.036301803 -0.12577575 -0.021164708 0.015250233 -0.026199713 0.11256245 0.083442494
0.01173858 0.009021142 0.04722431 -0.1128633 -0.054860413 -0.12800378 0.11726133 0.042630576
-0.051195763 0.10542978 0.033971857 -0.111613885 -0.05862011 0.102474 -0.065665476 0.031425633
0.0010940946 -0.016371015 0.029256176 0.05090493 0.023518985 -0.0056283763 -0.1002095 -0.052685402
-0.06856123 0.08311968 -0.009138379 -0.09978409 0.08270936 -0.06691264 0.052377842 -0.12579799

linear_relu_stack.6.bias f4 [32]
00000000: d70d 47bf 927e 053f 6501 8bbe 42e2 12bf
00000010: 4a39 713d 7878 203f bf43 003f 59bc 903d
00000020: 8ef9 803d 5b81 04bf e7fc 153f aa88 db3e
00000030: e045 efbe 3874 0e3f edab 51be dc99 133f
00000040: c0a6 c3be eb79 c23e b8bd aabe 780c a5be
00000050: fd43 013f dfbc bdbd 16eb 003f 8d3f 05bf
00000060: 1b98 fbbe 601e b9bd d5a6 d23e f993 f73e
00000070: 4184 203f 8fe4 c1be aff0 dcbe 719b cdbe
-0.7775549 0.52146256 -0.271495 -0.5737649 0.058892526 0.6268382 0.5010337 0.070671745
0.06297599 -0.5175988 0.58589023 0.42877704 -0.46732998 0.55646086 -0.2047574 0.57656646
-0.38213158 0.3798364 -0.3334787 -0.32236075 0.50494367 -0.0926454 0.5035871 -0.52050096
-0.49139485 -0.09038997 0.41142908 0.48355082 0.62701803 -0.3786969 -0.43152377 -0.40157655

linear_relu_stack.8.weight f4 [16, 32]
00000000: 35f3 14bd e377 353e 1c56 2a3e cdbf de3b
00000010: 4673 293e a65a e23c 8a83 bbbd 7d83 b583
00000020: 9947 183d 5069 2ebe 6877 03bd 6ced b6bd
00000030: 2414 113e f338 05bd 2682 d43d c9cd 9ebc
00000040: e27d 1cbe f5ab 66bb af79 ea3d cedd 1f3e
00000050: 0253 1fbd b2d9 40bd bce4 db3d 47e0 2c3e
00000060: b2d6 8fbd 32cc e93d 4868 73bd 84e1 0d3e
00000070: 2897 19be 04ac 62bd d49a ec3d 6769 103d
00000080: 210a ad3c d31f 11bb 31d3 b4ba 98c3 863d
00000090: 5500 85bd b9a3 b23d 1c34 cbbd 8dbb 973b
000000a0: 8608 1abe 67db 91bd b427 b93d 7f22 103e
000000b0: 6afb 0f3e 93e3 9c3c 02ca af3d b95a e4bc
000000c0: 1708 023d 730e 1d3c 797e d43d fc2e 1a3e
000000d0: 881d 1b3e ab34 893d b8f3 0a3d aa97 c7bd
000000e0: 6270 31be 598e 0c3e dab6 b0bc 00ad 1ebe
000000f0: 9f08 6d3e f52b 4cbd c6b2 24be 938d 893c
00000100: 5c85 90bc 2bf1 263e d80c 79bd 2902 f9bd
00000110: 9221 823d 10e8 fb3d cbe9 133e f136 2cbe
00000120: 488b f93b f04c 0abe 8b5f 223d f1e7 14bc
00000130: dd6e 953d c9a1 8f3d ae88 f3bd 8602 053e
00000140: 7606 2a3e b11a 503c 29ee 0abe 9b46 b6bc
00000150: d8b8 4dba 67b9 7cbc 45cb f2bd f985 b13d
00000160: da83 c73d 7a1f f23d fed6 bc3d a074 ac3d
00000170: d51c 723e dcd3 6cbd 2f3c 14bc e89f 92bd
00000180: 758a c9bd 8d73 8f3e f2ca dabd d6f3 db3d
00000190: 2522 0bbe 7139 bb3d 3400 073e c1a3 66be
000001a0: 59f2 403e 7d84 9dbe 629f 7dbd 0e45 ba3d
000001b0: d4b8 30be 0fba 013c a66c 073e 03f6 d93c
000001c0: 1958 17be 1dc6 043e c8a4 f3bd f9e0 ab3d
000001d0: e141 f03d 788c 5cbe a212 633e cc7f b0bd
000001e0: b28a 5bbc 2a96 1b3e 1709 58bd d9da a03d
000001f0: bf73 723e 1542 bdbd dc53 2b3e 4272 17be
00000200: 4698 0a3e 52f9 663e 1864 22be 5c2b 2d3d
00000210: 5264 ad3d 3a8b 193e e64c bc3c 1d47 f2bc
00000220: bbf0 bcbc 2b84 3ebe d74a f9bc 6bbf 2dbd
00000230: af62 31be a31a 153e 9b2a 16bd ace7 eb3c
00000240: d02e 07be 8878 ae3d 82cb edba 7f83 013e
00000250: 40db b93d 9cb9 b3bd e178 ff3d 7258 c73c
00000260: a7b6 2b3d 580c 6a3d 0c93 903c 3e80 383c
00000270: 44a0 2b3e 2391 afbd f9b5 1fbe cc99 173d
00000280: b594 303e 19e4 b93d 3c44 ca3d f601 9ebd
00000290: 7946 a13d 39e0 4a3d 8e3f 0a3e 4cf2 21be
000002a0: ccd1 c1bc 16dd dcbd c890 193e 21ff 98bb
000002b0: e014 73bd ec64 e53d 9a2d 2abe 3dda dfbd
000002c0: ddd3 31bc 0c1f 393c bef1 293e 6703 00be
000002d0: 179b e43d b93b 21be 9c24 143e 2acc fdbd
000002e0: 4536 893d dbe4 a3bd edc6 66bc 2a2c 063e
000002f0: 7ec6 13bd f797 dd3b af66 a93d 3ae4 d9bd
00000300: 363b aabd 786a 9a3d 5c10 2a3e e97b 03be
00000310: 48da 973d 9250 cebd 6c65 693d 3f9d 14bd
00000320: f1d3 dfbc 526b 48be 96a9 203e f813 203e
00000330: 2a45 263e 5fb9 da3c 56fb 45bc 0328 233e
00000340: 5190 9f3c a574 e03d 1acd dd3c e174 71bd
00000350: 15a2 763c 0645 2e3e b4f8 063e 0cf9 e43a
00000360: a239 05be 1719 02be 2a5a c93d ad48 85ba
00000370: 1962 623e 9b20 06be 14d7 d5bd 34d5 04be
00000380: 7b70 9dbd 9dff 3abe b132 3bbd afe3 64bd
00000390: 8829 d2bd b04a 5ebc 6650 80bd ca21 b303
000003a0: c5ba 0f3e 4889 16be eb15 2abe 469d afbd
000003b0: 6722 853d cfa3 0bbe d614 1f3e 1ef3 ed3d
000003c0: 7b63 0bbe ce57 b83d edbd be3d 054d ee3d
000003d0: 2886 cf3c dff7 76bc a696 a93d 4542 273e
000003e0: 9118 243e c5fa ecbd 28e9 273e 5b1b bdbd
000003f0: cab7 7cbd 47ec 063e 553f 2abe 32f3 39bd
-0.036364753 0.17721514 0.1663441 0.006797767 0.1654788 0.027631115 -0.091559485 -1.0668412e-36
0.037177656 -0.17032361 -0.032096297 -0.089320034 0.1416784 -0.032525014 0.10376386 -0.019385235
-0.15282395 -0.003519771 0.114489906 0.15611956 -0.03889752 -0.04708261 0.10736987 0.1688243
-0.07023372 0.114159 -0.059425622 0.13855559 -0.14999068 -0.055339828 0.115529686 0.03525677
0.021122994 -0.0022144213 -0.001379585 0.06580275 -0.06494204 0.08722634 -0.099220484 0.004630512
-0.15042314 -0.07121926 0.09040776 0.14075659 0.1406075 0.019151485 0.08583452 -0.027875291
0.031745996 0.0095859645 0.10375685 0.15056986 0.15147984 0.06699499 0.033923835 -0.097457245
-0.17328027 0.13726176 -0.021571565 -0.15495682 0.2314782 -0.04984661 -0.16083822 0.01679114
-0.017641716 0.16302936 -0.060803264 -0.12158615 0.06354059 0.12300122 0.14444654 -0.16817833
0.0076154806 -0.13505912 0.039641898 -0.009088502 0.07296536 0.0701328 -0.11891304 0.12989244
0.16604027 0.012701676 -0.13567413 -0.022250464 -0.0007847673 -0.015425063 -0.11855177 0.086681314
0.097419456 0.1182241 0.09220694 0.08420682 0.23643811 -0.057819232 -0.009047552 -0.07159406
-0.09840862 0.28017846 -0.1068324 0.107398674 -0.13587244 0.091418155 0.13183671 -0.22523405
0.18842448 -0.30765143 -0.061919577 0.090952024 -0.17258006 0.007917895 0.1322504 0.026606565
-0.147797 0.12966199 -0.11896664 0.083925195 0.117313154 -0.2153796 0.22175077 -0.08618125
-0.013399767 0.15194002 -0.052743044 0.07854242 0.23676966 -0.0924112 0.16731209 -0.1478968
0.1353465 0.22556046 -0.15858495 0.04227768 0.084664 0.14994517 0.022985887 -0.029574925
-0.023064008 -0.18605106 -0.030431194 -0.04241888 -0.17322801 0.14560942 -0.036661725 0.028796993
-0.13201451 0.08519083 -0.0018142315 0.12647818 0.09075022 -0.087756366 0.12474228 0.024334166
0.041922238 0.05714068 0.017648242 0.011261044 0.16760355 -0.085726045 -0.15596761 0.037011907
0.17244227 0.09076709 0.09876296 -0.07715218 0.0787477 0.04953024 0.13500807 -0.15815085
-0.02365961 -0.10784356 0.14996636 -0.0046690856 -0.05934608 0.1120089 -0.16618958 -0.109302975
-0.010853735 0.011298906 0.16596124 -0.12501298 0.111623935 -0.15745439 0.1446709 -0.12392457
0.06699804 -0.08002635 -0.014085514 0.13102785 -0.03607797 0.0067625004 0.082715385 -0.10639234
-0.08312075 0.075398386 0.16607803 -0.12840237 0.07414681 -0.10073961 0.05698149 -0.036282774
-0.027322741 -0.1957219 0.15689692 0.15632617 0.16237321 0.02669972 -0.012083849 0.15933232
0.019477995 0.10959748 0.02707534 -0.058949355 0.015053292 0.17018518 0.1318081 0.0017469241
-0.13010266 -0.12704884 0.098316506 -0.0010168754 0.22107734 -0.13098375 -0.104414135 -0.12971956
-0.076874696 -0.18261571 -0.04570264 -0.0558812 -0.10261828 -0.013567612 -0.06265335 1.0528432e-36
0.1403609 -0.14700806 -0.16609924 -0.085749194 0.06500702 -0.13636707 0.15535292 0.116186365
-0.13612168 0.090011224 0.09313569 0.11635784 0.025332525 -0.0150737455 0.08280687 0.16333874
0.16024996 -0.11571268 0.16397536 -0.09233733 -0.061698712 0.1317607 -0.16625722 -0.045397945

linear_relu_stack.8.bias f4 [16]
00000000: c26f 01be ab86 1a3f c926 093f eed3 2b3f
00000010: 9abd e43e cc39 ea3e f267 df3e 6ef5 b4be
00000020: 588b 09bf d327 fc3e dade 843b d01f 49bf
00000030: bdbc c1be d12c 04bf 0ece 3b3e d964 05be
-0.12640288 0.60361737 0.53574806 0.67120254 0.44675905 0.4574722 0.4363399 -0.35343498
-0.53728247 0.49249133 0.0040548863 -0.7856417 -0.37839308 -0.51630884 0.18340322 -0.13026752

linear_relu_stack.10.weight f4 [1, 16]
00000000: 7a0b f1bd f28c 1f3d 1881 003e 6f10 9d3e
00000010: 8086 303e 3409 8e3d 83fd 383e 4a95 31be
00000020: 7f45 2dbd cf9c 083e ea6a 853d 60e4 3abe
00000030: e1d0 ebbd 9e6e 88bd a109 cb3d 411a 5dbd
-0.11769767 0.038952775 0.12549245 0.306766 0.17238808 0.06935349 0.18065457 -0.17342106
-0.042302605 0.13341068 0.06514533 -0.1825118 -0.1151445 -0.066617236 0.09913946 -0.053980116
